last_brain.pth (torch, 7787 bytes, 12 tensors)

fc1.weight f4 [30, 5]
0	0x3f072e6d	0.52805215
1	0x3f0bd5d3	0.54623145
2	0xbeca88bf	-0.39557454
3	0x3e9c7e45	0.30565086
4	0xbe3570ea	-0.17718855
5	0xbe221672	-0.15828875
6	0xbce222d0	-0.02760449
7	0x3d806888	0.06269938
8	0xbddab250	-0.10678542
9	0xbb5e5a00	-0.0033928156
10	0x3e4aec0f	0.19816612
11	0x3ed09c36	0.4074418
12	0xbed3a74c	-0.41338575
13	0x3e458a41	0.19291021
14	0xbdea0fd0	-0.11428797
15	0x3f1299b6	0.57265794
16	0x3f34624e	0.704625
17	0x3e113409	0.14180006
18	0xbe0257d7	-0.1272882
19	0x3d9dac00	0.07698822
20	0xb9b1a5ba	-0.00033883547
21	0x3ea08de2	0.31358248
22	0xbf2f6e09	-0.68527275
23	0x3eabb150	0.33533716
24	0x3e750a56	0.23929724
25	0xbe596a1d	-0.21231885
26	0xbe846cc7	-0.2586424
27	0x3f25083e	0.644657
28	0xbe1816fa	-0.14852515
29	0x3ede5b80	0.43429184
30	0xbd881af3	-0.06645765
31	0x3f3933f7	0.7234492
32	0xbef2106e	-0.4727816
33	0x3e275503	0.16341023
34	0xbf255ada	-0.64591753
35	0x3d45d09c	0.04829465
36	0xbe213a2c	-0.15744847
37	0x3e6b10f7	0.2295569
38	0x3f421b1b	0.7582261
39	0xbf2182fc	-0.6309049
40	0xbeae7b48	-0.3407843
41	0x3e9afa78	0.30269217
42	0xbdb04814	-0.08607498
43	0x3f596d64	0.8493254
44	0xbe139f1d	-0.14416166
45	0x3e12437a	0.14283553
46	0xbde3a89e	-0.111161456
47	0x3ecc55d4	0.39909232
48	0x3f404d5d	0.75118047
49	0xbf08e8fa	-0.53480494
50	0xbedc3119	-0.4300621
51	0x3f39dd1a	0.72603
52	0x3e6db121	0.232121
53	0x3ecbf297	0.3983352
54	0x3ea3f031	0.3201919
55	0xbed1c5b2	-0.40971142
56	0xbf03240a	-0.51226866
57	0x3ea63ae1	0.32466796
58	0xbe6d4752	-0.23171738
59	0x3f02c842	0.5108682
60	0x3ec80bf1	0.3907161
61	0x3f1bd30d	0.6086891
62	0x3e533aee	0.20627949
63	0x3eb6be5c	0.35692108
64	0xbf382a20	-0.7193928
65	0x3eb1c1d3	0.3471819
66	0x3ec4ba35	0.38423315
67	0x3e8ed16f	0.2789416
68	0x3e8876a7	0.26653025
69	0xbe85a086	-0.26099032
70	0xbe710836	-0.23538288
71	0xbe893ee2	-0.26805788
72	0xbe1d1832	-0.15341261
73	0xbe8c549f	-0.2740831
74	0xbe249ed5	-0.16076215
75	0x3e8fcea1	0.28087333
76	0x3de168a9	0.110062905
77	0xbea86c2c	-0.3289503
78	0x3f32f383	0.6990282
79	0xbecc0f7f	-0.39855573
80	0x3ea20956	0.31647748
81	0xbcd570da	-0.026054788
82	0xbd95e30b	-0.07318696
83	0x3f004b79	0.5011516
84	0xbf206af9	-0.6266323
85	0x3f236dc1	0.63839346
86	0x3f4d7666	0.80258787
87	0x3e91145f	0.28335854
88	0x3e1628c7	0.14663993
89	0xbf30912a	-0.689715
90	0x3e871d80	0.26389694
91	0x3e8f5cfb	0.28000626
92	0x3f132d30	0.57490826
93	0x3de597d5	0.112106
94	0xbf15c86e	-0.58508956
95	0xbe485d73	-0.19566898
96	0xbef402c1	-0.4765835
97	0xbf86f699	-1.0544006
98	0xbed226a2	-0.410451
99	0x3eed3fda	0.46337777
100	0x3c6559fd	0.013998506
101	0xbecb2f50	-0.39684534
102	0x3e95187e	0.2912025
103	0x3ececdc3	0.4039136
104	0xbf04ca66	-0.51871336
105	0x3f10386d	0.563361
106	0x3e4c913c	0.19977278
107	0x3eaa95d4	0.33317435
108	0xbe1abd1c	-0.15111202
109	0x3ecea9fa	0.40364057
110	0x3eaea693	0.3411146
111	0xbdf0bd42	-0.11754848
112	0xbdf8e56d	-0.121531345
113	0xbf20bffe	-0.62792957
114	0x3ed95f8f	0.42455718
115	0x3e489897	0.19589458
116	0x3edb207e	0.42798227
117	0x3f21f64d	0.6326645
118	0x3ea03905	0.31293502
119	0x3e0dfc61	0.13865806
120	0x3d875365	0.06607703
121	0x3f23178c	0.63707805
122	0xbefaef0d	-0.49010506
123	0xbf99c044	-1.20118
124	0x3f8691a5	1.0513197
125	0xbe9ff43a	-0.31241018
126	0xbe9fe9b2	-0.31232983
127	0x3ecb7a8a	0.39741927
128	0xbd61e57b	-0.05515049
129	0xbe4e93d4	-0.2017358
130	0xbe9dccb3	-0.30820236
131	0x3f0615af	0.52376837
132	0xbd3580e1	-0.04431236
133	0x3e874d73	0.26426277
134	0xbd8f5e0e	-0.070003614
135	0xbeb72180	-0.35767746
136	0xbeac2892	-0.33624703
137	0xbe64a5c3	-0.22328858
138	0xbe5c5d45	-0.21519955
139	0xbeace0d8	-0.33765292
140	0xbe43dc2a	-0.19126955
141	0xbeae979f	-0.34100053
142	0x3ee0a8c2	0.43878752
143	0x3f3736e7	0.7156815
144	0xbe07c29d	-0.13257833
145	0xbc09e6d3	-0.008416849
146	0x3ec46285	0.38356414
147	0xbe052091	-0.13000704
148	0xbf59c9ba	-0.85073435
149	0x3f3867ac	0.7203319

fc1.bias f4 [30]
0	0x3dce56f4	0.10075179
1	0xbedb115e	-0.42786688
2	0x3e37c30c	0.17945498
3	0x3ee7b09f	0.4525194
4	0x3e4d3a1e	0.20041701
5	0x3eb53659	0.35393026
6	0xbe83f804	-0.25775158
7	0xbefd0d13	-0.49424037
8	0xbe5ac02e	-0.21362373
9	0xbecdaa6d	-0.40169087
10	0x3ddeaad5	0.108724274
11	0xbe780769	-0.24221577
12	0xbe80594d	-0.2506813
13	0x3e435504	0.190754
14	0xbe050401	-0.12989809
15	0x3ea5ec43	0.32406816
16	0x3ca6aef5	0.020347098
17	0x3ce74a65	0.028233716
18	0x3e86ebdd	0.26351824
19	0x3f0fe737	0.5621218
20	0xbf01b051	-0.5065966
21	0xbe4c2fe0	-0.19940138
22	0x3dfef824	0.12449673
23	0xbe8283f5	-0.254913
24	0xbe86c30e	-0.2632069
25	0x3f422d30	0.758502
26	0xbe93cc15	-0.2886664
27	0xbec4210c	-0.38306463
28	0xbe438c23	-0.19096427
29	0x3e0c5451	0.13704039

fc2.weight f4 [3, 30]
0	0x3f178db7	0.59200615
1	0x3e2d88a8	0.16946661
2	0x3e6a0bda	0.22856084
3	0xbea23633	-0.31681976
4	0x3ddba758	0.10725278
5	0x3f2e15c7	0.6800198
6	0xbe9db5d2	-0.3080278
7	0xbe12bd75	-0.14330085
8	0xbe722f66	-0.23650894
9	0xbe965ab2	-0.2936607
10	0x3d06a080	0.03286791
11	0xbd1a702d	-0.037704635
12	0xbed899ae	-0.42304748
13	0xbd00a3dd	-0.031406272
14	0x3d686edc	0.05674635
15	0xbe33a244	-0.17542368
16	0xbe993d46	-0.2992956
17	0xbe3afc41	-0.1826029
18	0xbe345285	-0.17609604
19	0x3f337628	0.7010217
20	0x3e61a791	0.22036578
21	0xbeb233f1	-0.34805253
22	0xbef7b63e	-0.48381227
23	0xbe906a8c	-0.2820629
24	0xbf130a61	-0.5743771
25	0x3f001390	0.5002985
26	0x3e68b199	0.22723998
27	0xbd4e1bc8	-0.050319463
28	0xbe4db549	-0.20088686
29	0xbf447579	-0.7674175
30	0x3dd93a27	0.10606795
31	0x3d398270	0.04529041
32	0x3ea1ad1c	0.31577384
33	0xbd1d76e2	-0.038443454
34	0xbdd726e4	-0.10505465
35	0x3ef0009e	0.4687547
36	0xbeb7ffcf	-0.35937354
37	0x3e056530	0.13026881
38	0xbef889a7	-0.4854252
39	0xbeb321f4	-0.34986842
40	0xbef054ca	-0.4693969
41	0xbf47bb42	-0.7802011
42	0xbe9209a6	-0.28522986
43	0xbe7dcb32	-0.24784544
44	0xbd78d546	-0.06075027
45	0xbe8466e7	-0.25859758
46	0xbea3e61f	-0.32011506
47	0xbd4d8684	-0.050177112
48	0xbe606d44	-0.21916682
49	0x3ef75a14	0.48310912
50	0x3f59b11f	0.8503589
51	0xbd8df09a	-0.06930657
52	0x3eab37f9	0.3344114
53	0xbce7559e	-0.028239068
54	0xbf7ac8cc	-0.9796264
55	0x3f0702b8	0.52738523
56	0x3f1ead09	0.6198278
57	0xbdf215ca	-0.11820562
58	0x3d93c89d	0.07215998
59	0xbe68ecc1	-0.22746564
60	0x3eac5ef7	0.33666202
61	0xbdb9c28a	-0.090703085
62	0x3efb9773	0.49138984
63	0xbc69930f	-0.014256253
64	0x3e9ed389	0.31020764
65	0x3ed0f84e	0.4081444
66	0x3d79f4fd	0.061024655
67	0xbf499b6e	-0.7875279
68	0xbf0fb723	-0.5613882
69	0xbed5d98c	-0.41767538
70	0x3e28d1e7	0.16486321
71	0xbf470488	-0.7774129
72	0xbdf73907	-0.12071424
73	0xbe3ff682	-0.18746379
74	0x3dc2ce6e	0.095120296
75	0x3c96ffc3	0.018432504
76	0x3d6937cf	0.05693799
77	0xbe418afe	-0.18900678
78	0xbd040f48	-0.032241136
79	0x3e13085f	0.14358662
80	0x3f6e7d9a	0.931604
81	0xbe35be71	-0.17748429
82	0x3d9656ab	0.07340749
83	0xbee95924	-0.4557582
84	0xbe86efb3	-0.2635475
85	0x3e8840ab	0.26611838
86	0xbe12e9a1	-0.14346935
87	0xbe15c118	-0.1462444
88	0xbf36b3ef	-0.71368307
89	0xbf46da62	-0.77676976

fc2.bias f4 [3]
0	0x3d34f9b5	0.04418345
1	0xbe835cd0	-0.25656748
2	0x3d60f03e	0.054916613

exp_avg f4 [30, 5]
0	0x3a1bf0db	0.0005948671
1	0x39dd9371	0.00042262257
2	0x3987dfda	0.0002591599
3	0xba8982e9	-0.0010491285
4	0x3a8982e9	0.0010491285
5	0x00000000	0.0
6	0x00000000	0.0
7	0x00000000	0.0
8	0x00000000	0.0
9	0x00000000	0.0
10	0x3a36824c	0.0006962165
11	0x39e8b2de	0.00044383755
12	0x3a35f9cc	0.00069418247
13	0xba51f3e2	-0.00080090587
14	0x3a51f3e2	0.00080090587
15	0xb90a39cb	-0.00013182235
16	0xb7e59338	-2.7367481e-05
17	0xb8a62038	-7.921498e-05
18	0x3a4bcace	0.00077740557
19	0xba4bcace	-0.00077740557
20	0x37493810	1.1993587e-05
21	0x3910f569	0.00013824333
22	0x0c11c2f2	1.1229058e-31
23	0xba38e500	-0.00070531666
24	0x3a38e500	0.00070531666
25	0x3a1670c2	0.0005738848
26	0x39eae14c	0.00044799817
27	0x3a6ba733	0.0008989453
28	0xbac888b1	-0.0015299526
29	0x3ac888b1	0.0015299526
30	0x3803d97b	3.143538e-05
31	0x38b90c2c	8.8237546e-05
32	0x396f37ea	0.00022813646
33	0x399ebf94	0.00030278845
34	0xb99ebf94	-0.00030278845
35	0x35800fc0	9.541327e-07
36	0xb89a3d46	-7.354705e-05
37	0xb98ef57b	-0.00027267248
38	0x39fbfe63	0.00048063984
39	0xb9fbfe63	-0.00048063984
40	0xb9a0ebc6	-0.00030693243
41	0xb906058a	-0.000127813
42	0xba7bb99b	-0.00096025475
43	0x3968f821	0.0002221768
44	0xb968f821	-0.0002221768
45	0xb9492012	-0.00019180801
46	0x3a2a13a0	0.00064879097
47	0xba50ce69	-0.0007965328
48	0x39e43221	0.00043524898
49	0xb9e43221	-0.00043524898
50	0x39c07b99	0.0003671318
51	0x39f7c181	0.00047255683
52	0xb978d0e4	-0.00023728941
53	0x391fe1b8	0.00015247508
54	0xb91fe1b8	-0.00015247508
55	0x393e819e	0.00018168098
56	0x355adab0	8.152956e-07
57	0x374e28b8	1.2288037e-05
58	0x3a431f8f	0.0007443362
59	0xba431f8f	-0.0007443362
60	0xb9990c73	-0.0002919171
61	0xb7ee1c3c	-2.8384959e-05
62	0xba0d40a2	-0.0005388354
63	0x3a596e76	0.0008294353
64	0xba596e76	-0.0008294353
65	0xb8d12621	-9.972999e-05
66	0xb8ac5448	-8.217298e-05
67	0xb9fd4ea4	-0.00048314512
68	0x396d5aa9	0.00022635855
69	0xb96d5aa9	-0.00022635855
70	0x00000000	0.0
71	0x00000000	0.0
72	0x00000000	0.0
73	0x80000004	-6e-45
74	0x00000004	6e-45
75	0x3968350b	0.00022145004
76	0x3a1f6567	0.0006080479
77	0xb7feb084	-3.0361356e-05
78	0x38bba8e1	8.948311e-05
79	0xb8bba8e1	-8.948311e-05
80	0x398cbf66	0.00026845484
81	0x3a5085ec	0.0007954526
82	0xb798f084	-1.823181e-05
83	0x391f5e10	0.00015198463
84	0xb91f5e10	-0.00015198463
85	0xb9835b57	-0.0002505432
86	0xb9bbc917	-0.00035817243
87	0xb93d29b8	-0.00018039986
88	0x39dba82e	0.0004189624
89	0xb9dba82e	-0.0004189624
90	0xb76e8bf0	-1.4218487e-05
91	0x35b65840	1.3585741e-06
92	0xb9811ea4	-0.00024627626
93	0x39a3bf97	0.00031232528
94	0xb9a3bf97	-0.00031232528
95	0xb880abbc	-6.135504e-05
96	0x39230883	0.00015548062
97	0x39d21469	0.00040069528
98	0xbaab6de9	-0.001307902
99	0x3aab6de9	0.001307902
100	0xba902141	-0.0010996239
101	0xb991e7ea	-0.00027829345
102	0xb8c0d700	-9.19532e-05
103	0xba3d5676	-0.00072226615
104	0x3a3d5676	0.00072226615
105	0xb99f14e0	-0.00030342396
106	0xb93df631	-0.00018116158
107	0xb98e6ef6	-0.00027167023
108	0x39eb21b2	0.00044847798
109	0xb9eb21b2	-0.00044847798
110	0x39ae64e4	0.00033263036
111	0xb8eacbea	-0.000111959715
112	0x39d0dcea	0.00039837445
113	0x3a04a565	0.0005060046
114	0xba04a565	-0.0005060046
115	0xb956cf64	-0.0002048589
116	0xba9c8107	-0.0011940309
117	0xba01f265	-0.0004957079
118	0x3a1162e0	0.00055460446
119	0xba1162e0	-0.00055460446
120	0xb895c450	-7.14144e-05
121	0xbab32978	-0.0013668975
122	0xb966e61a	-0.00022020229
123	0x3acdabda	0.0015691475
124	0xbacdabda	-0.0015691475
125	0x39b92748	0.00035315217
126	0x3921fed1	0.00015449083
127	0x3a527098	0.0008027642
128	0xbae585d5	-0.0017511199
129	0x3ae585d5	0.0017511199
130	0xb9689df5	-0.00022184088
131	0xb9c23681	-0.00037043172
132	0xb9aaacae	-0.00032553583
133	0x377cb4a8	1.5062433e-05
134	0xb77cb4a8	-1.5062433e-05
135	0x00000000	0.0
136	0x00000000	0.0
137	0x00000000	0.0
138	0x00000000	0.0
139	0x00000000	0.0
140	0xba48d680	-0.00076613575
141	0xb998c771	-0.00029140295
142	0xba254ae4	-0.000630541
143	0x39eced18	0.00045190076
144	0xb9eced18	-0.00045190076
145	0xb9ae0f26	-0.00033199153
146	0xba902f6a	-0.0011000459
147	0x39b5223c	0.00034548517
148	0x3aa41796	0.0012519236
149	0xbaa41796	-0.0012519236

exp_avg_sq f4 [30, 5]
0	0x3741b7bd	1.1546476e-05
1	0x3789993b	1.6403026e-05
2	0x37206138	9.559379e-06
3	0x377bcb65	1.5008122e-05
4	0x377bcb65	1.5008122e-05
5	0x00000000	0.0
6	0x00000000	0.0
7	0x00000000	0.0
8	0x00000000	0.0
9	0x00000000	0.0
10	0x37a2c3e0	1.9403116e-05
11	0x37ee062b	2.8374683e-05
12	0x3769c312	1.3933301e-05
13	0x377b35c8	1.4973288e-05
14	0x377b35c8	1.4973288e-05
15	0x3681d75f	3.869572e-06
16	0x355372a5	7.8770455e-07
17	0x36e15635	6.7155584e-06
18	0x3698c91d	4.5533657e-06
19	0x3698c91d	4.5533657e-06
20	0x36805e7f	3.825698e-06
21	0x370757b5	8.067048e-06
22	0x35a79723	1.2486456e-06
23	0x369a95b9	4.6069877e-06
24	0x369a95b9	4.6069877e-06
25	0x37e4eba1	2.7289441e-05
26	0x3797c501	1.809234e-05
27	0x3845cc21	4.715857e-05
28	0x37c566ac	2.353204e-05
29	0x37c566ac	2.353204e-05
30	0x36272083	2.4903864e-06
31	0x360a964c	2.0651087e-06
32	0x363abb9e	2.7825367e-06
33	0x36496852	3.0012056e-06
34	0x36496852	3.0012056e-06
35	0x37d2e32a	2.5139732e-05
36	0x37d24782	2.506725e-05
37	0x37ae6b5a	2.0792406e-05
38	0x3723467e	9.73197e-06
39	0x3723467e	9.73197e-06
40	0x3795d300	1.7860439e-05
41	0x37acaae7	2.058358e-05
42	0x378af97d	1.6567059e-05
43	0x37289524	1.0048305e-05
44	0x37289524	1.0048305e-05
45	0x37817adf	1.5435215e-05
46	0x37408ce6	1.1476897e-05
47	0x377ec835	1.5186194e-05
48	0x36ed9054	7.0799524e-06
49	0x36ed9054	7.0799524e-06
50	0x36f87eb8	7.405728e-06
51	0x37095799	8.186232e-06
52	0x3707e15b	8.099097e-06
53	0x368e73e2	4.2454203e-06
54	0x368e73e2	4.2454203e-06
55	0x3688d95b	4.0784194e-06
56	0x35ce9fc8	1.5394698e-06
57	0x36ca68a5	6.0322513e-06
58	0x3711514b	8.661601e-06
59	0x3711514b	8.661601e-06
60	0x372492e6	9.809364e-06
61	0x36ca0f63	6.0218604e-06
62	0x372f4a45	1.0448105e-05
63	0x36f03456	7.15865e-06
64	0x36f03456	7.15865e-06
65	0x36d4d5b6	6.3429716e-06
66	0x36ac08b8	5.1270144e-06
67	0x36cd890b	6.12543e-06
68	0x3650ede5	3.1132888e-06
69	0x3650ede5	3.1132888e-06
70	0x00000000	0.0
71	0x00000000	0.0
72	0x00000000	0.0
73	0x2c2c0f32	2.4451105e-12
74	0x2c2c0f32	2.4451105e-12
75	0x36b2f0df	5.3328545e-06
76	0x35f44e03	1.8202121e-06
77	0x36bf66f9	5.704231e-06
78	0x3607dcf4	2.024518e-06
79	0x3607dcf4	2.024518e-06
80	0x36e9139b	6.9462235e-06
81	0x36494dec	2.999669e-06
82	0x36fa94cd	7.4679033e-06
83	0x36b094dc	5.2625383e-06
84	0x36b094dc	5.2625383e-06
85	0x364751be	2.970089e-06
86	0x3652e87a	3.1427758e-06
87	0x365e5b80	3.3133838e-06
88	0x361b35d4	2.3128132e-06
89	0x361b35d4	2.3128132e-06
90	0x36c038e4	5.728669e-06
91	0x3622a3f3	2.4235312e-06
92	0x36d72431	6.4117125e-06
93	0x3629c16c	2.5295549e-06
94	0x3629c16c	2.5295549e-06
95	0x34f7c5d7	4.6151283e-07
96	0x35a56bf6	1.2324879e-06
97	0x35ae73bf	1.2997697e-06
98	0x3711083a	8.644589e-06
99	0x3711083a	8.644589e-06
100	0x3711f647	8.700014e-06
101	0x36b0069f	5.2459795e-06
102	0x373cdce1	1.1257101e-05
103	0x37167d3a	8.969853e-06
104	0x37167d3a	8.969853e-06
105	0x36bfbb52	5.7140505e-06
106	0x36cc85ca	6.095249e-06
107	0x36d85fa1	6.4484343e-06
108	0x368aba2e	4.1343947e-06
109	0x368aba2e	4.1343947e-06
110	0x372a7d79	1.01620035e-05
111	0x36721091	3.6070453e-06
112	0x378407b1	1.5739208e-05
113	0x36a14a61	4.8068327e-06
114	0x36a14a61	4.8068327e-06
115	0x377a0ce7	1.4904165e-05
116	0x37a8b339	2.0110618e-05
117	0x37609084	1.3385088e-05
118	0x370aaec6	8.266134e-06
119	0x370aaec6	8.266134e-06
120	0x37baffb8	2.2292006e-05
121	0x37ab6d6e	2.0435746e-05
122	0x37d751d3	2.56681e-05
123	0x379b0669	1.8480425e-05
124	0x379b0669	1.8480425e-05
125	0x37ef2f40	2.8513023e-05
126	0x37a38b1d	1.9495894e-05
127	0x381e54c8	3.7749094e-05
128	0x37c5c65f	2.3576604e-05
129	0x37c5c65f	2.3576604e-05
130	0x365bed32	3.2771609e-06
131	0x36823880	3.8808794e-06
132	0x368237ec	3.880812e-06
133	0x366298df	3.3765607e-06
134	0x366298df	3.3765607e-06
135	0x00000000	0.0
136	0x00000000	0.0
137	0x00000000	0.0
138	0x00000000	0.0
139	0x00000000	0.0
140	0x37a3318e	1.945419e-05
141	0x378c96c1	1.67595e-05
142	0x37a674a8	1.9843064e-05
143	0x370fdcc0	8.574862e-06
144	0x370fdcc0	8.574862e-06
145	0x375fe4fe	1.3345152e-05
146	0x381705db	3.600666e-05
147	0x37977a00	1.8057413e-05
148	0x37c12c53	2.3028033e-05
149	0x37c12c53	2.3028033e-05

exp_avg f4 [30]
0	0x37636000	1.3552606e-05
1	0x00000000	0.0
2	0x396b30bc	0.00022429501
3	0xb94ad0f0	-0.00019342056
4	0x39be6aed	0.0003631929
5	0x3ade7327	0.0016971574
6	0x3a57848d	0.0008221351
7	0x3aa9247c	0.001290455
8	0x3a160e7c	0.0005724204
9	0x3a3b5152	0.00071456016
10	0x38b175e0	8.4619736e-05
11	0xba1a2504	-0.00058801495
12	0x3a4fd875	0.0007928678
13	0xb9be40d9	-0.0003628794
14	0x00000004	6e-45
15	0x37d5ef90	2.5503134e-05
16	0x39c9a855	0.00038463125
17	0xb7a817ca	-2.0038238e-05
18	0x396b5f14	0.00022446766
19	0x3a4430e0	0.00074840896
20	0xb9d91e44	-0.00041412015
21	0xba87faf4	-0.0010374472
22	0xba903446	-0.0011001907
23	0xba8e0959	-0.0010836526
24	0xbabfcc1d	-0.0014632974
25	0x3a8ca240	0.0010729507
26	0xb99a08ec	-0.00029379816
27	0x00000000	0.0
28	0x3a8abd50	0.0010584984
29	0xbb93ea15	-0.0045139887

exp_avg_sq f4 [30]
0	0x38308064	4.2081243e-05
1	0x00000000	0.0
2	0x3833418c	4.273797e-05
3	0x378c3135	1.6712214e-05
4	0x3758df69	1.292662e-05
5	0x38c07882	9.17772e-05
6	0x36c99a70	6.0082457e-06
7	0x381be9dc	3.717268e-05
8	0x380e0837	3.386309e-05
9	0x37c71506	2.3732438e-05
10	0x3737eb74	1.0962471e-05
11	0x37985f5e	1.816422e-05
12	0x379c0955	1.8600995e-05
13	0x37176d06	9.025685e-06
14	0x2c51f9e8	2.9839412e-12
15	0x370ab6f1	8.268035e-06
16	0x3758f727	1.2932148e-05
17	0x36fe23fa	7.573978e-06
18	0x371e51f0	9.436611e-06
19	0x3809cd2d	3.285443e-05
20	0x3781c2a8	1.5468642e-05
21	0x37552537	1.2704454e-05
22	0x37dad5d1	2.6087191e-05
23	0x37d32a52	2.5172867e-05
24	0x385cf3ff	5.2679326e-05
25	0x3895ba97	7.139629e-05
26	0x36c37064	5.824537e-06
27	0x00000000	0.0
28	0x380bc2c1	3.332156e-05
29	0x38ae9905	8.325469e-05

exp_avg f4 [3, 30]
0	0xb9e5fbc1	-0.00043865855
1	0x00000000	0.0
2	0xb9c9d374	-0.00038495252
3	0x3a8a50fe	0.0010552702
4	0xb88a3f24	-6.592114e-05
5	0x3ac0a0c6	0.0014696352
6	0x38ae40a4	8.309007e-05
7	0xb9b30605	-0.00034146025
8	0xba0e6e5f	-0.00054333167
9	0xb9d14244	-0.00039912958
10	0xb9327d5d	-0.00017022104
11	0x3a0443f2	0.0005045525
12	0xb9deabf9	-0.0004247127
13	0xba457e42	-0.00075337675
14	0x00000000	0.0
15	0xbac47b6a	-0.0014990394
16	0xbaa7ee8b	-0.001281218
17	0xba5106ff	-0.000797376
18	0xba90c6e8	-0.0011045607
19	0x3ad1a455	0.0015994409
20	0xb9d587ae	-0.00040727615
21	0x3a2f2cf4	0.0006682419
22	0x3ae69640	0.0017592385
23	0x382c1968	4.1031657e-05
24	0x3ae4cac2	0.0017455446
25	0xb8b512f0	-8.63428e-05
26	0x37869e61	1.6047796e-05
27	0x00000000	0.0
28	0xba3144c0	-0.00067622587
29	0x3b18127d	0.002320438
30	0xba6470d8	-0.0008714325
31	0x00000000	0.0
32	0xba6d137c	-0.0009043736
33	0xb943d2b0	-0.00018675136
34	0xb867fd52	-5.5310615e-05
35	0x3aac5f70	0.0013151001
36	0xb88ff825	-6.864992e-05
37	0xb999080b	-0.00029188427
38	0x399801e2	0.00028993102
39	0x3a14d432	0.00056773715
40	0xb7cd0f50	-2.4445035e-05
41	0x398a31b0	0.0002635843
42	0xba88e4eb	-0.00104442
43	0xb934e924	-0.0001725299
44	0x00000000	0.0
45	0x37afaf80	2.094335e-05
46	0x398df834	0.00027078541
47	0xba4c41bc	-0.00077917776
48	0x394150bc	0.0001843599
49	0xb995f52a	-0.00028602156
50	0xb95306f8	-0.00020125124
51	0x39facf7a	0.00047838298
52	0x3a18a5d7	0.0005823052
53	0xb8a7abc8	-7.995177e-05
54	0x3b399540	0.002831772
55	0x3a7fbd5a	0.00097556936
56	0xb817f82b	-3.623233e-05
57	0x00000000	0.0
58	0x3a2ce8c0	0.0006595962
59	0x3a784859	0.000947123
60	0x3a62129c	0.0008623989
61	0x00000000	0.0
62	0x39dbfb13	0.00041958
63	0x3b2a00b5	0.0025940363
64	0x3932b6c8	0.00017043494
65	0x3a0d3a1d	0.00053873827
66	0xb924929a	-0.00015694872
67	0x37fa5148	2.9840172e-05
68	0xb9fb92ef	-0.00047983925
69	0x39033022	0.00012511064
70	0x3a721ede	0.0009236167
71	0x39a95ea0	0.00032304693
72	0x394c5020	0.00019484805
73	0x3a9a294a	0.0011761573
74	0x00000004	6e-45
75	0xba4e624a	-0.00078729226
76	0xba6a1ed0	-0.0008930983
77	0x3aecab97	0.0018056509
78	0x3a5c608b	0.000840672
79	0x3a36c81a	0.00069725665
80	0xb9064558	-0.00012805068
81	0x39ec96ca	0.00045125774
82	0x3a5f9ff0	0.00085306074
83	0x3a894cc2	0.0010475146
84	0x3a1025bb	0.00054987863
85	0x3a7df973	0.0009688355
86	0xb26d0000	-1.3795216e-08
87	0x00000000	0.0
88	0x380d7068	3.3721706e-05
89	0x3ab0b8dc	0.0013482827

exp_avg_sq f4 [3, 30]
0	0x3757dadd	1.2865957e-05
1	0x00000000	0.0
2	0x36cb7171	6.0630778e-06
3	0x38d1ab3e	9.997793e-05
4	0x36e8f333	6.942451e-06
5	0x387020c3	5.725097e-05
6	0x37899bfe	1.6404312e-05
7	0x381426ef	3.532221e-05
8	0x378ec200	1.7018057e-05
9	0x381a5321	3.679388e-05
10	0x370fa8f2	8.5628e-06
11	0x37049bd1	7.904092e-06
12	0x381a7e6a	3.6834193e-05
13	0x38bea01d	9.0897294e-05
14	0x00000000	0.0
15	0x38c8889f	9.562191e-05
16	0x384eb139	4.927928e-05
17	0x38f03190	0.000114533235
18	0x3916dffe	0.00014388558
19	0x37df7aa2	2.6640777e-05
20	0x364e2630	3.071862e-06
21	0x37b5b720	2.1662156e-05
22	0x3786084a	1.5977905e-05
23	0x37b1c6fd	2.1192705e-05
24	0x37df7396	2.6637495e-05
25	0x38eb7034	0.00011226573
26	0x35b22708	1.3273393e-06
27	0x00000000	0.0
28	0x380f880e	3.4220568e-05
29	0x37d6b955	2.559709e-05
30	0x37a0c648	1.9165818e-05
31	0x00000000	0.0
32	0x3697b38d	4.521053e-06
33	0x3950db83	0.000199182
34	0x35b77fda	1.3671772e-06
35	0x387c79c7	6.0194896e-05
36	0x372dad7c	1.0351996e-05
37	0x37b17ad8	2.1157248e-05
38	0x36f3755f	7.255628e-06
39	0x380ac54e	3.308552e-05
40	0x3734ed79	1.0784127e-05
41	0x362ad241	2.5454358e-06
42	0x386bf48d	5.625612e-05
43	0x38a520f2	7.87395e-05
44	0x00000000	0.0
45	0x384e6234	4.9205686e-05
46	0x380e74b4	3.3964126e-05
47	0x392b72d9	0.00016350615
48	0x390c8bc6	0.0001340351
49	0x37452775	1.1751302e-05
50	0x3663b5be	3.3931424e-06
51	0x38846e06	6.314744e-05
52	0x381a2389	3.6749556e-05
53	0x385721e5	5.129156e-05
54	0x38840bfa	6.296481e-05
55	0x388ac625	6.61726e-05
56	0x345adaa7	2.0382377e-07
57	0x00000000	0.0
58	0x378ef2bb	1.704075e-05
59	0x3871f4a0	5.7686702e-05
60	0x38ac2910	8.2092476e-05
61	0x00000000	0.0
62	0x3814207f	3.5316214e-05
63	0x398e01bc	0.00027085643
64	0x37bcc10a	2.2501237e-05
65	0x378f5bc8	1.7089667e-05
66	0x37be2b53	2.266994e-05
67	0x374bb2f4	1.2141409e-05
68	0x370b18e1	8.290838e-06
69	0x37fb4b6a	2.9956649e-05
70	0x380ee801	3.407151e-05
71	0x35099d52	5.126541e-07
72	0x38f35299	0.00011602528
73	0x38e7d906	0.00011055362
74	0x28b3fac9	1.9981753e-14
75	0x38cef745	9.868903e-05
76	0x3858bc8e	5.167402e-05
77	0x398a614e	0.0002639391
78	0x391e28ff	0.00015083326
79	0x37a1c395	1.928377e-05
80	0x344adb91	1.8892594e-07
81	0x380b7393	3.324782e-05
82	0x37ee624b	2.8417582e-05
83	0x386117ee	5.3666467e-05
84	0x3930cd37	0.00016861116
85	0x3849fd69	4.815814e-05
86	0x35d5bc6c	1.5924575e-06
87	0x00000000	0.0
88	0x36b6dc05	5.4496363e-06
89	0x38f365de	0.00011606117

exp_avg f4 [3]
0	0x3a031c10	0.0005001435
1	0x39fd1b78	0.00048276386
2	0x3af2e4c0	0.0018531308

exp_avg_sq f4 [3]
0	0x39648b9c	0.00021795783
1	0x38e2a369	0.00010806957
2	0x39163a90	0.00014326931
